app/src/main/assets/model.tflite (tflite, 836140 bytes, 8 tensors)

sequential/conv1d/BiasAdd/ReadVariableOp f4 [64]
0	0x3dd5c2eb	0.10437568
1	0x3dd1ca39	0.10243649
2	0x3cf9175d	0.030406648
3	0xbcda8c44	-0.026678212
4	0x3d80915c	0.06277725
5	0x3d91b655	0.07114855
6	0xbdac511a	-0.084139064
7	0x3c591c7a	0.013251418
8	0xbdb1c748	-0.08680588
9	0x3d97b22e	0.07407032
10	0x3e265b37	0.16245733
11	0x3d4c5eb4	0.049895003
12	0x3dab4d27	0.08364325
13	0x3ba46833	0.0050173043
14	0x3d808e69	0.062771626
15	0xbd2b41f5	-0.04181095
16	0x3d063d98	0.032773584
17	0xbdc2a6e7	-0.0950449
18	0xbd63a222	-0.055574544
19	0xbc7b31d0	-0.0153317
20	0xbd9b4c7a	-0.07582946
21	0xbda3b264	-0.0799301
22	0x3cae87e9	0.021305041
23	0x3d05b46f	0.032642778
24	0x3d7ce687	0.061743286
25	0x3c073f95	0.008254905
26	0x3d2b30a9	0.041794453
27	0x3d01dca5	0.031704564
28	0xbcec7deb	-0.028868636
29	0xbbd77814	-0.0065755937
30	0xbdcf090a	-0.10109146
31	0x3d055c20	0.03255856
32	0x3ce2577a	0.027629603
33	0x3cc06466	0.023485374
34	0x3d197f80	0.03747511
35	0xbce8a7dd	-0.028400356
36	0x3db7a41a	0.08966847
37	0x3d8d3980	0.06895733
38	0x3d1f5d98	0.038907617
39	0xbd82d41d	-0.06388114
40	0x3d167fac	0.03674285
41	0xbdd2cd36	-0.10293047
42	0xbdb350e2	-0.087556615
43	0x3dfa1581	0.12211133
44	0xbd590aa1	-0.052988652
45	0xbd4395f4	-0.04775043
46	0x3dff5a18	0.12468356
47	0xbd275ad8	-0.04085812
48	0x3dac57de	0.08415197
49	0x3db84e97	0.08999365
50	0x3d8bee17	0.068325214
51	0xbdd56b7a	-0.1042089
52	0xbd7a1e0c	-0.06106381
53	0x3dfd6703	0.123731636
54	0x3d157784	0.036490932
55	0xbda0d1b8	-0.07852501
56	0x3d96e900	0.0736866
57	0xbd85727f	-0.06515979
58	0x3d9f2c4b	0.0777212
59	0xbd7cbc54	-0.06170304
60	0xbd76fe3c	-0.06030105
61	0x3de51103	0.11184885
62	0x3dd2cbb5	0.1029276
63	0xbc08bef1	-0.008346305

sequential/conv1d_1/BiasAdd/ReadVariableOp f4 [128]
0	0x3e08cbd4	0.13359004
1	0xbd3d5da1	-0.04623187
2	0xbd6ad388	-0.05733064
3	0xbc38ee92	-0.011287348
4	0xbb53a0ec	-0.0032291962
5	0x3dd97596	0.10618131
6	0xbd8d410e	-0.06897174
7	0xbd170041	-0.036865477
8	0xbd863350	-0.06552756
9	0xbda93076	-0.08261196
10	0xbd95fee1	-0.07324005
11	0xbd36851c	-0.044560537
12	0xbc4d4125	-0.012527739
13	0x3c8b0ad6	0.01697294
14	0x3dbddfac	0.09271178
15	0x3cdd3366	0.027002048
16	0xbccadf37	-0.02476464
17	0x3c9e26d3	0.019305622
18	0x3def9df0	0.11700046
19	0xbc14e47b	-0.009087677
20	0x3d8cb46a	0.06870349
21	0xbc786b37	-0.015162281
22	0xbd1d6c20	-0.038433194
23	0x3dac0346	0.08399062
24	0xbc96b256	-0.018395584
25	0x3df2245a	0.1182334
26	0x3cbf63ba	0.023362983
27	0x3daf09fc	0.08546826
28	0xba40e1be	-0.0007357857
29	0xbd66f6ed	-0.05638783
30	0xbd2b5a9e	-0.041834466
31	0xbbd37c71	-0.0064540436
32	0xbdbb59fa	-0.09148021
33	0x3d325af2	0.043543763
34	0x3b99cb01	0.0046933894
35	0xbd019900	-0.031640053
36	0x3b29f071	0.0025930668
37	0x3d1c3edc	0.038145885
38	0xbc6ec582	-0.014573457
39	0xbd934410	-0.07190716
40	0x3da13972	0.07872285
41	0xbd3a9bc2	-0.0455587
42	0x3daa2707	0.08308225
43	0xbd0f5db9	-0.03500149
44	0xbcc0da04	-0.023541458
45	0x3ddc42e4	0.10754946
46	0x3df8ab3f	0.121420376
47	0xbbe4182c	-0.0069608893
48	0x3de293ef	0.11063372
49	0x3e270c39	0.16313256
50	0xbd15cb96	-0.036571108
51	0xbc76683b	-0.015039499
52	0x3dcd154a	0.10013826
53	0x3d129328	0.03578487
54	0x3d0e9eaf	0.0348193
55	0x3d88de53	0.0668303
56	0x3cd8b0a4	0.026451416
57	0x3d268c4e	0.04066115
58	0x3d9b1b81	0.07573605
59	0x3ca41c5f	0.02003306
60	0x3d58fa75	0.05297323
61	0xbd9da91a	-0.07698269
62	0xbcccad15	-0.024984876
63	0x3dcd8944	0.10035947
64	0x3cd9576e	0.026530948
65	0xbcd6496f	-0.026158063
66	0xbc26e8d2	-0.010187345
67	0x3d1e4a6d	0.038645197
68	0xbce047b1	-0.027377935
69	0x3de016d4	0.10941854
70	0x3dd0d45f	0.101967566
71	0xbd1adce0	-0.0378083
72	0x3dcf36ab	0.10117849
73	0xb91f47ea	-0.00015190212
74	0x3caaa259	0.020829367
75	0x3d74d22e	0.059770755
76	0xbbba199f	-0.005679324
77	0x3d894ce6	0.0670412
78	0x3ad9af17	0.0016607967
79	0xbd7ab1c7	-0.061204698
80	0x3b6717af	0.003526192
81	0x3e03ba9b	0.12864153
82	0xbd1eb53d	-0.03874706
83	0xbd201dce	-0.039090924
84	0x3dd1e8dc	0.102494925
85	0xbcb2a03d	-0.021804923
86	0x3ca7901f	0.020454464
87	0xbc4ae175	-0.012382855
88	0x3d2f93f4	0.04286571
89	0xbb0d9359	-0.0021602719
90	0x3d2dd541	0.042439703
91	0xbc3dc8b1	-0.011583493
92	0xbdc8abf6	-0.09798424
93	0x3dc61d91	0.09673608
94	0xbc38444f	-0.011246755
95	0xbbe92131	-0.0071145524
96	0x3dd2ba17	0.102894
97	0x3d260318	0.040530294
98	0x3b366740	0.0027832538
99	0x3ae0aac0	0.0017140731
100	0xbc8aa03b	-0.016922107
101	0xbd318fc3	-0.043349992
102	0x3dca1a98	0.098683536
103	0xbceb2eba	-0.028708804
104	0xbc211301	-0.009831191
105	0xbc1e6080	-0.009666562
106	0xbb3d8878	-0.0028920453
107	0x3c65bd42	0.014022173
108	0xbbe1b22d	-0.0068876953
109	0x3d875ca9	0.066094704
110	0xbc31163c	-0.010808524
111	0xbd0d1bd0	-0.034450352
112	0xbbe94011	-0.007118233
113	0x3cb32615	0.021868745
114	0xbbce63b9	-0.006298509
115	0x3d3706be	0.044684164
116	0xbd8327c2	-0.064040676
117	0x3dccecee	0.10006128
118	0x3e066394	0.13123924
119	0x3d8e7f15	0.06957833
120	0x3d14533d	0.036212195
121	0x3b8aa093	0.0042305677
122	0xbdd8ed5a	-0.10592146
123	0xbcf03b3d	-0.029325122
124	0xbd5b00b8	-0.053467482
125	0x3da5bd42	0.08092739
126	0xbc0ff276	-0.008785835
127	0xbc428530	-0.011872575

sequential/conv1d/Conv1D f4 [64, 1, 3, 6]
0	0x3e9bb3ee	0.30410713
1	0xbd81b146	-0.0633264
2	0x3de70102	0.11279489
3	0x3c74f3d5	0.014950712
4	0xbd7464c9	-0.05966643
5	0x3b888531	0.0041662683
6	0x3e75b1e3	0.2399364
7	0xbcbee1ea	-0.023301084
8	0x3bb04dad	0.0053803534
9	0xbd11a02e	-0.03555315
10	0x3b85d088	0.0040836968
11	0xbd768b12	-0.06019122
12	0x3e7bdc53	0.24595766
13	0xbe461d2a	-0.19347063
14	0x3e039ec0	0.12853527
15	0x3d8d6d14	0.069055706
16	0x3d4a9cfa	0.04946611
17	0x3d1608fc	0.036629662
18	0x3e6c1bb0	0.23057437
19	0x3dae9c98	0.08525962
20	0x3d6884a3	0.056767117
21	0xbde1b813	-0.110214375
22	0x3a94eed7	0.0011362684
23	0xbd05a969	-0.032632265
24	0x3eb1278e	0.3460049
25	0x3d1fc126	0.03900256
26	0x3e7bc3ff	0.24586485
27	0xbe08ad6b	-0.13347404
28	0xbc9abbb2	-0.018888328
29	0xbdb72350	-0.08942282
30	0x3daa6659	0.083203025
31	0xbdf65b6b	-0.12029155
32	0x3ce8133e	0.028329488
33	0x3d124c48	0.03571728
34	0xbd18738a	-0.03721956
35	0xbdc4a9cb	-0.09602698
36	0xbe6c0373	-0.23048191
37	0xbc3571d4	-0.011074502
38	0x3e8496f8	0.2589643
39	0xbc5d19c7	-0.013494915
40	0xbd2878c0	-0.04113078
41	0x3c6832aa	0.0141722355
42	0xbe3e9c52	-0.18614319
43	0x3dca0ee5	0.09866122
44	0x3e5f2c79	0.21794309
45	0xbd66cb02	-0.056345947
46	0xbd8b9a97	-0.06816595
47	0x3ceb642a	0.028734285
48	0xbdee7f79	-0.11645407
49	0xbb2161e0	-0.0024624988
50	0x3db104ca	0.086434916
51	0x3ce33370	0.027734488
52	0xbdd8a562	-0.10578419
53	0x3d63540e	0.055500083
54	0xbc7b1759	-0.015325391
55	0x3de9154c	0.11381015
56	0xbd33c3fd	-0.04388808
57	0xbd20c00d	-0.039245654
58	0xbd0a2089	-0.033722434
59	0x3bd5687d	0.0065127
60	0xbddc4dae	-0.10757004
61	0xbdbf682d	-0.09346042
62	0x3d1c0485	0.038090248
63	0xbcb5786a	-0.022152144
64	0x3dd3dcf8	0.10344881
65	0x3de17c42	0.110100284
66	0xbe0a9773	-0.13534336
67	0xbe3ff32b	-0.18745105
68	0xbe3db9e5	-0.18527944
69	0xbdcc35c5	-0.09971193
70	0x3d2e1c65	0.042507548
71	0xbd41fc8a	-0.04735998
72	0x3e0b11f5	0.13581069
73	0xbd2e2cfc	-0.04252337
74	0xbe5613a8	-0.20905936
75	0xbd96dab1	-0.07365931
76	0x3e1a1107	0.15045558
77	0xbc2c8817	-0.010530493
78	0xbddc0ba5	-0.107444085
79	0x3db50298	0.08838385
80	0xbe97446b	-0.29544386
81	0xbe08af39	-0.13348092
82	0xbd23a29e	-0.039950006
83	0x3d6740fa	0.05645845
84	0x3d96d270	0.073643565
85	0x3e020533	0.12697296
86	0xbeb1d24d	-0.3473076
87	0x3de5d37a	0.112219766
88	0xbc28338c	-0.010266196
89	0x3d14bc51	0.036312405
90	0x3e3ac33a	0.18238536
91	0xbe437d29	-0.19090714
92	0xbe0141ae	-0.12622711
93	0xbe0ad3fa	-0.13557425
94	0x3d6afdf8	0.05737111
95	0xbe1ffae0	-0.15623045
96	0x3e1f3747	0.1554843
97	0xbe2073be	-0.15669152
98	0xbe5b3db1	-0.21410252
99	0xbc900e79	-0.017585026
100	0xbd0be25e	-0.034151427
101	0x3cb96c7e	0.02263474
102	0x3e53393c	0.20627302
103	0xbcc20c5c	-0.023687534
104	0xbe9797c9	-0.2960799
105	0x3d87e46b	0.06635364
106	0xbdbc2a3c	-0.09187743
107	0xbd75bd86	-0.059995197
108	0x3e23f6ec	0.16012162
109	0x3dd92b73	0.106039904
110	0x3e364307	0.17799006
111	0x3de7f47c	0.113259286
112	0x3d436382	0.04770232
113	0x3da2ee12	0.079555646
114	0xbc4c4aed	-0.012469036
115	0x3e353ba4	0.17698532
116	0xbdf6be60	-0.1204803
117	0xba817782	-0.0009877535
118	0x3cca6f72	0.024711344
119	0x3e3406ee	0.17580768
120	0x3cf5430a	0.029939193
121	0x3d107e4d	0.0352767
122	0xbd2c67d7	-0.042091217
123	0xbde01864	-0.10942152
124	0x3dc88320	0.09790635
125	0xbdc83f6d	-0.097777225
126	0x3ceaa54b	0.028643271
127	0x3e116630	0.14199138
128	0x3e2ffdb8	0.1718663
129	0x3de9041c	0.11377737
130	0x3c99c60d	0.018771196
131	0xbe1cecc9	-0.15324701
132	0x3e617a31	0.22019269
133	0x3e5f5b63	0.21812205
134	0x3dbdabe4	0.09261301
135	0xbdee5c0c	-0.1163865
136	0x3d17cae4	0.037058726
137	0x3b4a6305	0.0030881774
138	0x3ea298f8	0.3175733
139	0x3e5153e8	0.20442164
140	0x3da554ad	0.08072791
141	0x3da1d793	0.07902446
142	0x3de2b439	0.11069531
143	0xbd59eca9	-0.053204212
144	0x3cfb9432	0.030710313
145	0x3d8ea674	0.06965342
146	0xbd5797df	-0.05263507
147	0xbdf93c10	-0.12169659
148	0xbe18fbd8	-0.14939821
149	0xbd70a087	-0.05874684
150	0xbcc31010	-0.02381137
151	0xbc1a30b8	-0.0094110295
152	0x3e1d87e2	0.15383866
153	0xbb96159d	-0.004580213
154	0x3ddb7ebf	0.10717534
155	0xbdc3afd5	-0.09555022
156	0x3d0fbc06	0.035091422
157	0xbdb984c1	-0.09058524
158	0xbd033b68	-0.032039076
159	0x3d7af806	0.06127169
160	0x3d1f63c7	0.038913514
161	0xbd9614d5	-0.07328192
162	0xbe03a965	-0.12857588
163	0x3e0b8ddc	0.13628334
164	0xbe5e5623	-0.21712546
165	0xbe2b530a	-0.16730896
166	0xbe22cf61	-0.15899421
167	0xbda73ff5	-0.08166496
168	0xbd7640ce	-0.060120396
169	0xbde43bb2	-0.111441985
170	0xbe540df4	-0.20708448
171	0x3dc03972	0.09385957
172	0x3e0eba9a	0.1393837
173	0xbdcf910a	-0.10135086
174	0xbb78b14f	-0.003794748
175	0x3e2d0b3b	0.16898815
176	0xbe92445e	-0.28567785
177	0x3dea7c38	0.11449474
178	0x3dacb656	0.08433215
179	0x3d5c3bf2	0.053768106
180	0xbe9ae909	-0.30255917
181	0xbe4b409e	-0.19848868
182	0xbe488b61	-0.19584419
183	0xbd98f116	-0.074678585
184	0xbe1798b3	-0.14804344
185	0x3d2700be	0.040772192
186	0xbe348afc	-0.17631143
187	0xbda27d05	-0.07934002
188	0xbe86333b	-0.2621096
189	0x3dc321a1	0.095278986
190	0x3e2135cb	0.15743177
191	0x3e293418	0.16523778
192	0xbd77c6b6	-0.06049224
193	0xbdf2aec5	-0.11849741
194	0xbe75bc51	-0.23997618
195	0x3ddeedf5	0.108852305
196	0xbbaa592f	-0.00519862
197	0x3d9f4232	0.07776298
198	0x3e907456	0.28213757
199	0xbdaf7d68	-0.08568841
200	0x3d257a3c	0.040399775
201	0xbcd098ce	-0.025463488
202	0xbca7ee8d	-0.020499492
203	0xbdfd5d97	-0.123713665
204	0x3ea07505	0.3133928
205	0x3d165353	0.036700558
206	0x3e8f4a8d	0.27986565
207	0xbd8ac16f	-0.06775176
208	0xbd1d8899	-0.038460348
209	0xbe08d797	-0.13363491
210	0x3ea5da2f	0.32393023
211	0xbdf4034c	-0.11914691
212	0x3d8ff2dc	0.070287436
213	0x3d21791f	0.03942215
214	0xbd418254	-0.04724343
215	0xbdf5f028	-0.12008697
216	0xbe4d6d59	-0.20061244
217	0xbe2934a3	-0.16523986
218	0x3e396a41	0.18106939
219	0x3d00be6a	0.031431593
220	0xbb757848	-0.0037455726
221	0xbd4032fd	-0.046923626
222	0xbea83ddd	-0.32859698
223	0xbdb8eda1	-0.09029699
224	0x3e61ec86	0.22062883
225	0xbd94a856	-0.0725867
226	0xbdb4d812	-0.08830275
227	0x3dac28e0	0.08406234
228	0x3af8ea1f	0.0018990672
229	0xbe10ff51	-0.14159895
230	0x3d78084e	0.060554795
231	0x3ddc9058	0.10769719
232	0x3e1312ed	0.14362688
233	0xbe02ccfe	-0.12773511
234	0x3e33e481	0.17567636
235	0x3a93cc71	0.0011276138
236	0xbdbfe8dd	-0.09370587
237	0xbd7922ae	-0.06082409
238	0x3cdcfa94	0.026974954
239	0x3d0e4405	0.034732837
240	0x3dffdecd	0.12493668
241	0xbdab6105	-0.083681144
242	0x3d7fa6c6	0.062414907
243	0xbccb1133	-0.024788475
244	0xbda4c96f	-0.08046233
245	0x3e255e7d	0.16149326
246	0x3e06323f	0.13105105
247	0x3d551da9	0.05203024
248	0xbe06f950	-0.13181043
249	0xbdf23cd8	-0.11828011
250	0x3e1c8a30	0.1528709
251	0x3dbef790	0.093245625
252	0x3c59c144	0.013290707
253	0x3d5b83fb	0.053592663
254	0x3e441ae8	0.19150889
255	0xbd9cdf47	-0.07659774

sequential/conv1d_1/Conv1D f4 [128, 1, 3, 64]
0	0xbcb90625	-0.022585938
1	0xbd35b2db	-0.044360023
2	0xbd2e6876	-0.04258009
3	0xbddba7f4	-0.10725394
4	0xbdadd40a	-0.08487709
5	0xbc5856da	-0.013204301
6	0xbdb3d105	-0.08780102
7	0xbd9a9c17	-0.07549303
8	0xbd8c42d2	-0.068486825
9	0x3da126d7	0.07868736
10	0x3dd9b787	0.10630708
11	0xbd74e6b8	-0.059790343
12	0xbd893a79	-0.06700606
13	0x3c6f3ef6	0.014602413
14	0x3cfc91ca	0.030831236
15	0xbd58fad3	-0.05297358
16	0xbd08fbf2	-0.0334434
17	0x3dc191f5	0.09451667
18	0xbcb3b136	-0.021935087
19	0x3d064f54	0.032790497
20	0x3d29116d	0.041276384
21	0xbdea0924	-0.11427525
22	0xbb9b0f06	-0.0047320155
23	0x3dcca855	0.09993044
24	0x3d881bee	0.06645952
25	0xbd5e214d	-0.054230977
26	0xbd76ac90	-0.060223162
27	0xbd5311e8	-0.05153075
28	0x3d942e6d	0.072354175
29	0xbd06590f	-0.032799777
30	0x3b9d388b	0.004798
31	0xbd86c29b	-0.06580087
32	0x3d5c615d	0.05380379
33	0xbd6689b9	-0.056283686
34	0xbd8e1ba4	-0.06938866
35	0xbdd8345b	-0.10556861
36	0xbcc9b5bc	-0.02462279
37	0x3dfbc527	0.12293463
38	0x3cc11172	0.023567889
39	0x3c456dbe	0.01205009
40	0x3c618409	0.01376439
41	0x3d84cdc4	0.06484559
42	0xbcaee75b	-0.021350553
43	0xbda7d746	-0.08195357
44	0xbe04ce2a	-0.1296927
45	0xbd399b98	-0.0453144
46	0x3d6fb89b	0.058525663
47	0xbb883c26	-0.004157561
48	0xbd6d36a2	-0.05791343
49	0x3ca9ffbc	0.020751826
50	0x3c02d2a4	0.007984791
51	0xbd5959d1	-0.05306417
52	0x3d9799fd	0.07402418
53	0xbc02495d	-0.0079520615
54	0x3d9e05ac	0.077159256
55	0xbd094d59	-0.03352103
56	0xbd0a18d6	-0.03371509
57	0xbdd73a87	-0.1050921
58	0xbd2dc7c4	-0.04242684
59	0x3d254a62	0.04035414
60	0x3d3e06f0	0.046393335
61	0xbd9e4d6e	-0.07729612
62	0x3d9afb6c	0.07567486
63	0xbd3c8c6e	-0.04603236
64	0x3b685d97	0.0035456175
65	0x3caebcb2	0.021330211
66	0xbaa22f58	-0.0012373729
67	0x3c145ba4	0.009055052
68	0x3daccbdc	0.084373206
69	0x3d178143	0.036988508
70	0x3d5a5f5e	0.053313605
71	0x3bacaf55	0.0052699246
72	0xbda64d88	-0.08120257
73	0x3d763bdf	0.06011569
74	0x3db6624a	0.08905466
75	0x3d0f19ed	0.034936834
76	0x3d3a91a8	0.045549065
77	0xbdd3b8eb	-0.10338005
78	0xbd0303b6	-0.03198596
79	0x3d90d7a5	0.07072381
80	0x3d8b5dd0	0.06805003
81	0xbd84f879	-0.06492705
82	0xbd4d1e29	-0.05007759
83	0x3d33a42f	0.04385775
84	0x3db901f1	0.090335734
85	0x3bdce8c2	0.006741614
86	0x3d80edd6	0.062953636
87	0xbc9e7882	-0.019344572
88	0x3d92e0f9	0.071718164
89	0x3ddc96da	0.1077096
90	0xbdd4604a	-0.10369928
91	0x3dbffed6	0.09374778
92	0xbd56df03	-0.052458774
93	0xbc98c70d	-0.018649602
94	0xbda97ef5	-0.08276168
95	0x3c71c372	0.01475607
96	0x3e038856	0.12844977
97	0x3be8ff06	0.0071104793
98	0x3da14ffc	0.07876584
99	0xbe0a1354	-0.13483936
100	0xbd4d317a	-0.050096013
101	0x3d88a8eb	0.066728435
102	0xbd906bf9	-0.07051844
103	0x3dce66d5	0.100782074
104	0xbbb456e8	-0.005503524
105	0xbca31847	-0.019909037
106	0xbd4d6f3c	-0.05015491
107	0x3dd3ffd0	0.10351527
108	0x3cd9cec7	0.026587857
109	0xbd46acf2	-0.048504777
110	0x3d324f57	0.043532696
111	0x3d67216a	0.05642835
112	0x3daced6c	0.08443722
113	0x3d0d0e9d	0.034437764
114	0xbdb0c13d	-0.08630607
115	0xbdcaf8bb	-0.09910723
116	0xbd0386b1	-0.032110874
117	0x3ddb792e	0.107164726
118	0xbcaa1b11	-0.02076486
119	0xbd5f8068	-0.054565817
120	0x3dfe7cfb	0.12426182
121	0xbdbe1cc6	-0.09282832
122	0xbdef8672	-0.11695565
123	0xbdbc3c99	-0.091912456
124	0xbd339aad	-0.043848682
125	0x3d116458	0.035496086
126	0x3da6079b	0.081069194
127	0xbd9ffcb8	-0.07811874
128	0xbd951212	-0.07278837
129	0xbcab8cf3	-0.020941233
130	0xbd09609d	-0.033539403
131	0xbc3cdb0c	-0.011526834
132	0xbd33ff84	-0.04394485
133	0x3da07d0c	0.07836351
134	0xbc7e8b71	-0.015536175
135	0x3daa667a	0.08320327
136	0x3da1ba45	0.07896856
137	0x3ce2accf	0.027670292
138	0xbcea116a	-0.028572757
139	0x3d082fe5	0.0332488
140	0xbc37df56	-0.011222681
141	0x3cd7ec6a	0.026357848
142	0xbb512754	-0.003191431
143	0xbe0b7070	-0.1361711
144	0x3db72706	0.0894299
145	0xbb35e4d2	-0.0027754796
146	0xbda76690	-0.08173859
147	0xbda1c6c5	-0.078992404
148	0xbe0d18f4	-0.1377905
149	0x3cd5bc69	0.026090818
150	0x3b7a319a	0.0038176537
151	0x3cf6ebb2	0.030141685
152	0x3dd010cd	0.101594545
153	0x3d1a377d	0.037650574
154	0xbd42c193	-0.047547888
155	0x3d0d070d	0.034430552
156	0xbd9eaab1	-0.077474006
157	0xbda66ab9	-0.081258245
158	0xbd4d669f	-0.050146695
159	0xbda14d69	-0.07876093
160	0x3dc33fc8	0.0953365
161	0xbd183003	-0.037155163
162	0xbcafc715	-0.021457234
163	0xbd7d18db	-0.061791282
164	0x3cd656e5	0.026164481
165	0xbdb28d2b	-0.08718332
166	0x3c0786e9	0.008271911
167	0x3ce6b256	0.02816121
168	0xbdba2181	-0.090884216
169	0x3d54b8d7	0.05193409
170	0xbd24d49e	-0.04024183
171	0xbdaa5609	-0.08317191
172	0xbdd770e9	-0.10519583
173	0x3d141dba	0.036161162
174	0xbd4c9c71	-0.04995388
175	0x3d8b47f0	0.0680083
176	0x3d69a9cf	0.057046708
177	0xbca4e303	-0.020127779
178	0x3dd3857b	0.10328194
179	0x3c998e70	0.018744677
180	0xbcb3a36e	-0.021928515
181	0x3cb8ba21	0.02254969
182	0xbd6f90a3	-0.058487546
183	0xbd895475	-0.06705562
184	0x3df410b0	0.119172454
185	0xbc3d5ba6	-0.011557495
186	0x3d0f0b43	0.03492285
187	0xbd46d7ff	-0.048545834
188	0xbda6012d	-0.08105693
189	0xbe090ea6	-0.13384494
190	0x3d49bbb2	0.049251266
191	0xbdd2e7a0	-0.10298085
192	0x3ce24992	0.027622972
193	0xbadc640e	-0.0016814487
194	0xbd9bfeee	-0.07616983
195	0xbd8f9769	-0.07011301
196	0x3d9d5f79	0.076842256
197	0x3d6e5786	0.058188938
198	0xbd82f5bb	-0.063945256
199	0x3dc2e4b8	0.09516281
200	0xbd60d074	-0.054886296
201	0xbc03f09d	-0.008052972
202	0x3ccd2f16	0.025046866
203	0xbc4f76f3	-0.012662637
204	0x3bd61161	0.0065328334
205	0x3cc35819	0.02384572
206	0xbdb06da3	-0.086146615
207	0xbb9439f5	-0.0045235106
208	0xbd679293	-0.05653627
209	0xbd39260e	-0.045202307
210	0x3d25f3f6	0.040515862
211	0x3c679714	0.014135141
212	0xbdad132b	-0.084509216
213	0xbbdce182	-0.00674075
214	0xbda43f98	-0.08019942
215	0x3d12cfcf	0.035842713
216	0x3d1aa0f1	0.037751142
217	0x3d5dba7f	0.054132935
218	0xbd94a9d4	-0.07258955
219	0xbac222c5	-0.0014811388
220	0xbd7ada50	-0.061243355
221	0x3da19836	0.0789036
222	0x3befcea6	0.0073183356
223	0xbdaf4b71	-0.08559311
224	0x3db78d79	0.08962531
225	0xbd551799	-0.052024458
226	0x3dcbad97	0.09945219
227	0xbdb94e3b	-0.090481244
228	0x3d32236b	0.04349081
229	0xbd97a2e0	-0.07404113
230	0x3c934204	0.017975815
231	0xbd1bafb0	-0.038009346
232	0xbc1ecfb1	-0.009693072
233	0xbd5bda57	-0.053675022
234	0x3dbc8373	0.092047594
235	0x3d7d4e4e	0.061842255
236	0x3b5cba6f	0.003368046
237	0x3d0bdc59	0.034145687
238	0x3d579900	0.052636147
239	0xbd20157d	-0.039082993
240	0xbd97898c	-0.07399282
241	0x3ca22a9b	0.019795706
242	0xbd6aa25b	-0.05728374
243	0x3ca8ba7f	0.02059674
244	0x3d91035d	0.070807196
245	0xbddb7147	-0.10714965
246	0xbd37f044	-0.04490687
247	0xbd2fb8d2	-0.042900868
248	0xbc867fd0	-0.016418368
249	0xbd3bfe09	-0.045896564
250	0x3d12a927	0.035805847
251	0xbd924368	-0.07141763
252	0xbc94ca80	-0.018162966
253	0xbdb72e45	-0.08944372
254	0x3dbb3b91	0.09142221
255	0x3d0059a7	0.0313355

sequential/dense/BiasAdd/ReadVariableOp f4 [128]
0	0xbd20aca7	-0.039227154
1	0xbbc4aa4d	-0.0060017467
2	0x3cfb44b0	0.030672401
3	0xbbfc1ff4	-0.007694239
4	0xbc000049	-0.007812568
5	0xbc3e03d4	-0.011597592
6	0xbbe70ccc	-0.007051086
7	0x3cbdf3ac	0.02318748
8	0x3ad88daf	0.0016521717
9	0xbbc4bd12	-0.0060039843
10	0x3c7dee3c	0.015498694
11	0x3ccad5ff	0.024760244
12	0x3bcd5831	0.0062666168
13	0x3c3d699a	0.011560822
14	0x3d1ec9d1	0.038766686
15	0xbbed89df	-0.0072491015
16	0xbbfc5ce5	-0.0077015036
17	0xbbc245f5	-0.0059287497
18	0x3c634357	0.013871036
19	0xbca05b55	-0.0195748
20	0x3db27fc0	0.08715773
21	0x396ae6af	0.00022401915
22	0xbc3e8d76	-0.011630407
23	0x3ce788e5	0.028263519
24	0x3dd178aa	0.10228093
25	0xbb8d0cf8	-0.0043045245
26	0x3dd552ec	0.10416207
27	0x3d3b3b13	0.045710634
28	0x3d87cf85	0.06631378
29	0xbcad584a	-0.021160264
30	0xbb6caedc	-0.0036114966
31	0xbbdd1fe9	-0.0067481888
32	0x3d767faa	0.060180344
33	0xbbbbb3aa	-0.0057282047
34	0xbd330827	-0.043708947
35	0x3d9c7fc6	0.07641558
36	0xbc05963b	-0.0081534935
37	0xba5a0f95	-0.0008318362
38	0xbc877894	-0.016536988
39	0x3d3242c4	0.043520704
40	0xbbf2a6c8	-0.007405136
41	0xbc12f1b3	-0.008968758
42	0xbc208f46	-0.009799784
43	0x3c9c87b1	0.019107671
44	0x3da4a6d4	0.080396324
45	0x3c3b6de1	0.011439771
46	0x3a37a0b0	0.00070048403
47	0x3d0a9a3d	0.0338385
48	0x39194b31	0.00014619228
49	0x3a0182f7	0.0004940475
50	0xbbc442d0	-0.00598941
51	0x3a68f68a	0.0008886835
52	0xbbec4470	-0.007210307
53	0x3d93f90e	0.07225238
54	0x3cab1cd7	0.020887775
55	0xbb12f26e	-0.0022422331
56	0x3d525bec	0.051357195
57	0xbd61e752	-0.055152245
58	0x3bb351c1	0.0054723923
59	0xbb99ea98	-0.004697155
60	0x3c4a7cf4	0.012358893
61	0x3d98c364	0.07459143
62	0xbc15ddc8	-0.009147115
63	0x3d28f4b7	0.041249003
64	0x3c9c11aa	0.019051392
65	0xbafd1dba	-0.0019311227
66	0xbb1def92	-0.0024099094
67	0xbbd21f67	-0.006412435
68	0x3dae9c8b	0.08525952
69	0x3d0df8ad	0.034660984
70	0x3ba38144	0.004989775
71	0x3bc51b29	0.0060152006
72	0x3978ead0	0.00023738598
73	0x3da67f1f	0.08129715
74	0x3d95551c	0.07291624
75	0x3d5b1b6a	0.05349294
76	0xbbec2b54	-0.0072073136
77	0x3b9740cd	0.004615879
78	0xbb3a8686	-0.002846153
79	0xbc4b620e	-0.012413515
80	0x3c1f3979	0.009718292
81	0x3bee48ce	0.0072718626
82	0x3d59cd43	0.05317427
83	0xbcc1c7d4	-0.023654856
84	0x3a793270	0.0009506112
85	0x3db54aac	0.08852133
86	0xbc379e4e	-0.011207176
87	0x3d84e265	0.06488494
88	0xbb2e25d0	-0.002657283
89	0x3c6b2e54	0.014354307
90	0xbc9a47d3	-0.018833077
91	0x3c10726e	0.008816345
92	0x3cc0adc3	0.023520356
93	0x3d967eda	0.07348414
94	0x3d29aae0	0.041422725
95	0x3dcfdb71	0.10149277
96	0xbc841a19	-0.016125726
97	0xbbcb0a96	-0.0061963303
98	0x3d817a2f	0.06322133
99	0xbbb13b03	-0.005408646
100	0x3b91f264	0.004453944
101	0xbc3a31fc	-0.011364456
102	0xbbbb260a	-0.0057113217
103	0x3dcf4747	0.10121017
104	0x3cec7f89	0.028869407
105	0x3da8d22d	0.08243213
106	0xbc1ef4b4	-0.009701896
107	0xbbc4c27e	-0.0060046306
108	0xbba91307	-0.005159739
109	0xbd03dc9b	-0.032192808
110	0xbccccca2	-0.02499992
111	0xbbff23fb	-0.0077862716
112	0x3cbdbb7c	0.023160689
113	0xbd1696c4	-0.036764875
114	0x3c0d5860	0.008627027
115	0x3da8e43d	0.08246658
116	0xbc3406c9	-0.010987946
117	0x3c7bd5eb	0.015370826
118	0x3d8333f0	0.06406391
119	0xbbc4bb9d	-0.0060038106
120	0xbcc0d382	-0.023538355
121	0x3db3f5c0	0.087871075
122	0xbba2fac8	-0.004973743
123	0x3b77ba24	0.0037800157
124	0xbbee7d1f	-0.007278099
125	0xbba6fab8	-0.005095806
126	0x3d09ef0a	0.03367523
127	0x3d248343	0.040164243

sequential/dense_1/BiasAdd/ReadVariableOp f4 [11]
0	0x3d78d04c	0.060745522
1	0x3d21fce0	0.0395478
2	0x3dafb8af	0.085801475
3	0x3d061962	0.03273905
4	0x3dca31cc	0.09872779
5	0xbd933660	-0.071881056
6	0xbddcc57d	-0.107798554
7	0xbd9f19a0	-0.077685595
8	0xbbc049ba	-0.005868164
9	0xbd77da69	-0.060511027
10	0xbde46cbc	-0.11153552

sequential/dense/MatMul f4 [128, 1408]
0	0xbcf7e154	-0.030258812
1	0xbc71f87e	-0.014768718
2	0xbd4a463a	-0.04938338
3	0x3cf3df7b	0.02976965
4	0x39034673	0.00012519378
5	0xbd9497fa	-0.0725555
6	0x3c91eaf8	0.017812237
7	0xbd4ef4aa	-0.0505263
8	0x3d6649a9	0.05622259
9	0x3d0d4e3b	0.034498435
10	0x3d324294	0.043520525
11	0x3b90dea3	0.0044210716
12	0x3d352678	0.04422614
13	0xbd1cea24	-0.03830923
14	0x3c59e2c2	0.013298692
15	0x3d0fd355	0.03511365
16	0xbb641be1	-0.0034806656
17	0x3d14b77b	0.036307793
18	0xbc908a0b	-0.017643949
19	0xbcd34d90	-0.02579382
20	0xbc83df13	-0.016097581
21	0x3c9b08da	0.01892512
22	0xb9668fc6	-0.00021988069
23	0x3d0eb140	0.034837008
24	0x3c4204db	0.011841978
25	0x3c2405e4	0.01001117
26	0x3bd7a036	0.006580378
27	0x3cf7f657	0.030268831
28	0xbc1902ed	-0.0093390765
29	0xbd88dc2f	-0.06682622
30	0xbc5a4e56	-0.013324341
31	0x3bfc09b4	0.0076915864
32	0xbcac88c1	-0.021061303
33	0xbd5c1d7d	-0.05373906
34	0xbd3bf2fb	-0.04588602
35	0x3c86840e	0.01642039
36	0xbcd3bae2	-0.025845949
37	0x3d72ed89	0.059308562
38	0x3d6fb851	0.058525387
39	0xbb4d58d4	-0.0031333463
40	0x3d02b4b3	0.03191061
41	0xbd45dc67	-0.048305895
42	0xbd17ba2e	-0.03704279
43	0xbd03fa86	-0.03222134
44	0x3d27c87a	0.040962674
45	0xbd4d1e19	-0.05007753
46	0x3c813937	0.015774352
47	0xbd26d3d1	-0.040729348
48	0xbc08288a	-0.0083104465
49	0xbc5fe25b	-0.013664807
50	0xbd1cccbf	-0.0382812
51	0x3c9cbd51	0.019133242
52	0xbd537163	-0.051621806
53	0x3c6f4e63	0.014606091
54	0x3c7b8afe	0.015352963
55	0xbc977824	-0.018489905
56	0xbbc7a0bd	-0.0060921595
57	0x3c94b0b5	0.018150667
58	0x3d17b7a9	0.037040386
59	0x3cccf16d	0.025017465
60	0x3d3546e3	0.044257056
61	0x3d556854	0.05210145
62	0x3d26a3dc	0.040683612
63	0xbbd72cb7	-0.0065666097
64	0x3c63db68	0.013907291
65	0x3d36db2f	0.044642624
66	0x3d6521d6	0.05594047
67	0x3c1669b7	0.009180478
68	0x3cb4f84c	0.022091053
69	0xbbda3a5d	-0.0066597895
70	0xbcad06ca	-0.021121401
71	0x3c34840d	0.0110178115
72	0xbc982c8f	-0.018575935
73	0xbd1fbe46	-0.03899982
74	0x3ba4a96c	0.0050250795
75	0x3d2130ee	0.039353304
76	0x3d6a6973	0.05722947
77	0x3d0f4ef5	0.03498741
78	0xbc9b46ef	-0.018954722
79	0xbd625f76	-0.05526682
80	0x3c4d71f3	0.012539375
81	0xbd36d980	-0.044641018
82	0xbd56a0bb	-0.05239938
83	0xbbc52e66	-0.006017494
84	0x3d595825	0.053062577
85	0x3bc06616	0.0058715446
86	0x3cebd4d8	0.028788015
87	0x3d61ee38	0.055158824
88	0x3b052866	0.0020318269
89	0x3d86097f	0.0654478
90	0xbd0a1969	-0.03371564
91	0xbb02c691	-0.001995478
92	0x3c3ba572	0.011453019
93	0xbc28bd12	-0.010298984
94	0x3c2e4fa6	0.010639107
95	0x3d314bae	0.043285064
96	0x3c282f92	0.010265248
97	0xbcae555d	-0.021280939
98	0xba63e525	-0.0008693508
99	0xbb270050	-0.0025482364
100	0xbcf4ad92	-0.029867921
101	0xbd5b7966	-0.05358257
102	0x3a3b1438	0.0007136497
103	0xba1e0034	-0.0006027252
104	0x3b6ffa3d	0.003661766
105	0x3cf4a583	0.029864078
106	0xbcade29c	-0.02122622
107	0xbbbc57da	-0.0057477774
108	0x3d2c4cc1	0.042065386
109	0x3d0bcaa6	0.034128807
110	0x3d83fb31	0.06444395
111	0x3d3b6874	0.04575391
112	0x3baf77a8	0.0053548403
113	0x3d51f226	0.05125632
114	0x3b95631b	0.0045589334
115	0x3c42ae14	0.011882324
116	0xbc6a8ec6	-0.014316266
117	0xbc52db65	-0.012869691
118	0x3d3e376d	0.046439577
119	0x3cb1f848	0.021724835
120	0x3d81734b	0.063208185
121	0xbd494d9e	-0.049146287
122	0xbbe5624c	-0.0070002433
123	0xbc981a29	-0.018567162
124	0xbd16d40f	-0.03682333
125	0xbd79440d	-0.060855914
126	0xbd6250db	-0.05525289
127	0xbd6b05e4	-0.057378665
128	0x3c8bb162	0.017052356
129	0xbbe922ca	-0.007114743
130	0x3cd6a30a	0.02620079
131	0x3c6e0907	0.0145285195
132	0xbd598dfa	-0.053113915
133	0x3d5dea11	0.0541783
134	0xbd633c68	-0.05547753
135	0xbcbeb132	-0.023277853
136	0x3d740cb5	0.05958243
137	0x3cbd25df	0.023089347
138	0xbd6fce6b	-0.058546465
139	0xbbc4670f	-0.005993731
140	0x3d07cf22	0.03315652
141	0xbd781556	-0.060567223
142	0xbd794d12	-0.060864516
143	0x3c372feb	0.011180858
144	0x3d3f7ba2	0.046748765
145	0xbc8ccdc9	-0.01718797
146	0xbc952f16	-0.018210929
147	0xbd096566	-0.033543967
148	0x3d5b598f	0.053552207
149	0x3cecbdef	0.028899161
150	0x3d63e4e4	0.05563821
151	0x3d278030	0.040893734
152	0x3d1a6f59	0.037703846
153	0xbccdaff9	-0.025108324
154	0xbba728b1	-0.0051012863
155	0x3d5543a6	0.052066468
156	0x3c9e4c6c	0.01932355
157	0x3d3b62c0	0.045748472
158	0xbd116633	-0.035497855
159	0xbca2a39d	-0.019853408
160	0x3d595272	0.05305714
161	0xbd8a5ed7	-0.067563705
162	0x3cba0d0f	0.022711305
163	0x3d597e90	0.053099215
164	0xbd8d18df	-0.068895094
165	0x3d77dfa6	0.060516022
166	0xbd48dfc4	-0.049041525
167	0xbd36cf2d	-0.044631172
168	0xbdb06393	-0.08612742
169	0xbc5eb34b	-0.013592551
170	0x3d0d0511	0.03442866
171	0xbd1bca51	-0.03803474
172	0x3d090bde	0.033458583
173	0x3d34cf5c	0.044143066
174	0x3cb02995	0.021504203
175	0x3cf0ae7e	0.02938008
176	0x3c96286a	0.018329818
177	0xbd3bdd1d	-0.045865167
178	0x3c833554	0.01601664
179	0x3d9f5073	0.07779016
180	0x3d449b08	0.04799941
181	0x3cbdf4ad	0.02318796
182	0x3d2caed8	0.04215893
183	0xbc900e42	-0.017584924
184	0xbc49b44f	-0.012311055
185	0x3d7b9b71	0.061427537
186	0x3c5e946f	0.013585194
187	0x3ca58bcc	0.020208262
188	0x3d8d2855	0.06892458
189	0xbcdb1cfd	-0.026747221
190	0x3d521300	0.05128765
191	0xbd77a452	-0.060459442
192	0xbaae91d4	-0.0013318607
193	0xbc30fa62	-0.010801883
194	0xbd8760ce	-0.06610261
195	0x3b3381ce	0.0027390602
196	0x3a54baa1	0.0008114968
197	0x3d4419f3	0.04787631
198	0xbd139d96	-0.036038958
199	0xbbde968a	-0.006792848
200	0xbd8933ee	-0.06699358
201	0xbc5587e5	-0.013032888
202	0xbd2b4ab6	-0.041819297
203	0xbd167f2a	-0.036742367
204	0x3c6e8aae	0.014559431
205	0xbba90a04	-0.0051586647
206	0x3cc65454	0.024210133
207	0x3d4d8427	0.05017486
208	0xbd5930b3	-0.05302496
209	0xbd0b6f59	-0.034041736
210	0xbcfcc9aa	-0.03085788
211	0x3cad461f	0.0211516
212	0x3d207c40	0.039180994
213	0x3cb12ada	0.021626879
214	0xb9b5a630	-0.0003464683
215	0x3d4ddaac	0.05025737
216	0x3c3b60ed	0.011436683
217	0x3ceef5ad	0.029169882
218	0xbd649f05	-0.055815715
219	0x3d1c5b1d	0.03817283
220	0x3d61862f	0.055059608
221	0xbd718d99	-0.05897293
222	0xbd4d0aae	-0.050059013
223	0x3c888dd8	0.016669199
224	0x3cf8ae74	0.030356623
225	0xbb3a9914	-0.002847259
226	0xbb94fc8f	-0.004546709
227	0xbb700808	-0.003662588
228	0xbd5d4997	-0.05402526
229	0x3cc9a3c1	0.024614217
230	0xbd934d63	-0.07192495
231	0x3d0c8984	0.034310833
232	0x3c40aa16	0.011759302
233	0x3d836fe6	0.06417827
234	0xbc035fae	-0.008018417
235	0x3c98e9a4	0.018666096
236	0xbc42711a	-0.011867786
237	0x3d09eadf	0.033671256
238	0xba8e573b	-0.0010859737
239	0x3d6a510a	0.05720619
240	0xbc90be8c	-0.017668985
241	0xbd658691	-0.056036536
242	0xbc21254d	-0.009835553
243	0xbc7eb193	-0.015545267
244	0xbbd5aff0	-0.0065212175
245	0xbc7bd138	-0.015369706
246	0xbaeca630	-0.0018054899
247	0x3c4caa1b	0.012491728
248	0xbd270655	-0.040777523
249	0x3cfcfd49	0.030882495
250	0x3c896e2b	0.016776165
251	0xbc326415	-0.010888119
252	0x3c7408ab	0.014894645
253	0x3d0af33e	0.03392338
254	0xbccb9bc9	-0.024854558
255	0x3c2fe7c7	0.010736412

sequential/dense_1/MatMul f4 [11, 128]
0	0xbd4018a9	-0.046898518
1	0xbd99c51e	-0.075083
2	0x3dc4cd0e	0.096094236
3	0xbd93c9bc	-0.07216212
4	0x3d915ede	0.070981726
5	0xbe2998f5	-0.16562255
6	0xbd8203db	-0.063483916
7	0x3def4410	0.11682904
8	0x3e16d07a	0.14727965
9	0xbdea0507	-0.1142674
10	0xbe2ff2e5	-0.171825
11	0xbe234c3d	-0.15947051
12	0x3de8407a	0.11340423
13	0x3e54626f	0.20740674
14	0x3d6ac2d1	0.057314698
15	0x3e056f0b	0.13030641
16	0xbd974079	-0.07385344
17	0xbc456a13	-0.012049216
18	0xbc71dd66	-0.014762258
19	0xbd5d4f1e	-0.05403053
20	0xbe53dcdc	-0.2068972
21	0x3e07eb1d	0.13273282
22	0xbd920a62	-0.071308866
23	0xbe3f136f	-0.18659757
24	0x3df389d2	0.118915215
25	0x3d8a84cb	0.067636095
26	0x3dab254b	0.083567224
27	0x3e0d0c5d	0.13774247
28	0xbea542a4	-0.32277405
29	0xbe52785f	-0.2055373
30	0xbe404320	-0.18775606
31	0xbd981af5	-0.07427017
32	0x3df2bd31	0.11852492
33	0xbaa72105	-0.001275093
34	0xbe881461	-0.26578048
35	0xbdfa806a	-0.12231524
36	0xbdf8082b	-0.12110933
37	0x3c8f4b88	0.01749207
38	0x3c7520d8	0.014961444
39	0x3c482952	0.012216883
40	0x3e3fb99b	0.18723147
41	0x3e2fae7c	0.17156404
42	0xbd984a0f	-0.074360006
43	0x3dc9348c	0.09824476
44	0xbd88e894	-0.06684986
45	0x3d9d2773	0.0767354
46	0x3e446b35	0.19181521
47	0x3e07ee08	0.13274395
48	0x3e1ea275	0.1549166
49	0x3e1317fc	0.14364618
50	0xbe1ec4a1	-0.15504695
51	0xbd00e640	-0.031469584
52	0x3c93aab4	0.018025734
53	0x3e5144e2	0.20436433
54	0x3e36f741	0.17867757
55	0x3c6f9e1b	0.014625098
56	0x3d827209	0.06369407
57	0xbc8f5068	-0.017494395
58	0xbe259333	-0.16169433
59	0x3cf7ac7b	0.030233612
60	0x3d5fc6ee	0.054633074
61	0x3e07a3f1	0.13246132
62	0xbe4cf94c	-0.20016974
63	0x3e3ff44d	0.18745537
64	0xbe60331e	-0.218945
65	0xbcb13630	-0.021632284
66	0xbd6430e4	-0.05571069
67	0xbddad63a	-0.10685392
68	0x3e04d614	0.1297229
69	0x3df0d724	0.11759785
70	0x3df7e1a8	0.121035874
71	0xbd859e44	-0.065243274
72	0x3ddac7cf	0.10682642
73	0xbe1e9b78	-0.15488994
74	0x3e1528ae	0.145663
75	0x3cb0241f	0.021501599
76	0xbd29b6dd	-0.041434158
77	0x3d9de668	0.07709962
78	0x3d697457	0.056995716
79	0x3d6b0e31	0.05738658
80	0xbd4b1cd0	-0.049588025
81	0x3d7e42cc	0.06207542
82	0x3e85167d	0.2599372
83	0xbde096ce	-0.10966264
84	0xbdd84653	-0.10560288
85	0x3e3f78dc	0.18698448
86	0xbbd53cdb	-0.0065074987
87	0x3e2d584b	0.16928212
88	0xbd765739	-0.060141776
89	0x3e32d808	0.17465222
90	0xbe0870f9	-0.13324346
91	0x3dac54ec	0.08414635
92	0x3e2eb40a	0.17060867
93	0x3e22d801	0.15902711
94	0x3e0a4ae6	0.13505134
95	0x3d8076d0	0.06272662
96	0x3dcf7ef7	0.101316385
97	0xbe0c8abd	-0.137248
98	0x3e296d44	0.16545588
99	0xbe3a4012	-0.18188503
100	0x3cd1f227	0.025628163
101	0xbce233b2	-0.02761254
102	0xbe574bb7	-0.21024977
103	0x3e35e2e2	0.1776233
104	0x3c33cf8b	0.010974775
105	0x3dcbe4d6	0.09955756
106	0x3dfd368d	0.1236392
107	0x3d9a3b2e	0.07530819
108	0xbdebf975	-0.115221895
109	0x3d12a76a	0.03580419
110	0xbe1baed6	-0.15203413
111	0x3dcd2318	0.10016459
112	0x3d82307b	0.06356903
113	0xbd75f337	-0.0600464
114	0x3e24699b	0.1605591
115	0xbe14fae1	-0.14548828
116	0xbe221604	-0.15828711
117	0x3ab5aaf8	0.0013860157
118	0x3d814cad	0.06313453
119	0xbe26e4bb	-0.16298191
120	0xbd3e6246	-0.04648044
121	0x3e17b196	0.14813837
122	0xbe36551d	-0.17805906
123	0xbcb35055	-0.021888891
124	0xbd9ee2de	-0.07758115
125	0x3e364864	0.17801052
126	0x3c80a3ae	0.015703049
127	0xbc3338ef	-0.010938867
128	0xbe3cd9cb	-0.18442456
129	0x3c437c28	0.011931457
130	0xbe056c74	-0.13029653
131	0xbd8d33ac	-0.06894621
132	0xbe4471eb	-0.19184081
133	0x3d1464e2	0.03622902
134	0x3e072930	0.13199306
135	0xbd97f514	-0.07419792
136	0x3d7455c1	0.059652094
137	0xbdecb12f	-0.115572326
138	0x3cd7a0f4	0.026321866
139	0x3dae082b	0.08497652
140	0x3e056b3c	0.13029188
141	0xbe80a265	-0.25123897
142	0x3da24324	0.07922962
143	0x3ceaa420	0.028642714
144	0xbe3da49e	-0.18519828
145	0x3e1d25e1	0.15346481
146	0x3e66d0c7	0.2254058
147	0x3e196414	0.14979583
148	0x3d822652	0.06354965
149	0x3ddf4649	0.10902078
150	0xbe4718a3	-0.19442992
151	0x3e00f52e	0.12593529
152	0xbdd9c480	-0.106331825
153	0xbe413bec	-0.18870515
154	0x3c797e2a	0.015227834
155	0xbd1534dc	-0.036427364
156	0x3ddb6063	0.10711744
157	0x3d618793	0.055060934
158	0xbda148c8	-0.0787521
159	0x3dd53c0d	0.104118444
160	0x3e18f0c3	0.14935593
161	0xbe0e1b2a	-0.1387755
162	0xbe09aade	-0.13444087
163	0x3d00ba6f	0.031427797
164	0xbe1b7611	-0.15181758
165	0xbdc96b9c	-0.09834978
166	0xbc34dd39	-0.011039072
167	0x3c395863	0.011312577
168	0xbd94a84a	-0.07258661
169	0xbe2eb78b	-0.17062204
170	0xbe1ad04e	-0.15118524
171	0x3e2a113e	0.1660814
172	0x3e132c9d	0.14372487
173	0x3c3658cf	0.011129572
174	0xbd95f8e9	-0.073228665
175	0xbc9e470c	-0.019320987
176	0x3de58add	0.11208127
177	0xbddbd88a	-0.10734661
178	0xbb6ff579	-0.003661482
179	0xbc8db226	-0.017296862
180	0xbdfa9b4b	-0.12236651
181	0xbdcb6ead	-0.09933219
182	0xbdfc3310	-0.12314427
183	0xbe6f8bac	-0.23393124
184	0x3e63783e	0.22213838
185	0x3d889038	0.066681325
186	0x3da5a417	0.08087938
187	0xbd105aec	-0.03524296
188	0x3e32d1c1	0.17462827
189	0xbc9efc39	-0.019407379
190	0x3c7b6b61	0.015345425
191	0xbd8ddcf9	-0.06926913
192	0x3e36d58f	0.17854904
193	0xbe28361a	-0.16426888
194	0xbe3f3173	-0.18671207
195	0x39aacf89	0.00032579552
196	0x3dea37af	0.11436402
197	0xbdbff2f1	-0.09372509
198	0xbd7fcc7c	-0.06245087
199	0x3e87aa2e	0.26497024
200	0x3cf6175e	0.03004044
201	0xbe0bfb67	-0.13670121
202	0xbea78d8a	-0.32725173
203	0x3e02b97d	0.1276607
204	0xbc7cf34b	-0.015438865
205	0xbe4bcd5e	-0.1990256
206	0x3db5c3bd	0.08875225
207	0xbdc1da64	-0.09465483
208	0xbe07492c	-0.13211507
209	0x3e41dc4a	0.1893169
210	0xbdc3fa1a	-0.095691875
211	0xbdf1814e	-0.11792241
212	0x3d05d86b	0.032677095
213	0x3e39a187	0.18128024
214	0xbb76246a	-0.0037558326
215	0xbd9502ff	-0.07275962
216	0xbd4397c5	-0.04775216
217	0x3dfeaa5f	0.124348395
218	0xbdd49f0c	-0.10381898
219	0xbe67904b	-0.22613637
220	0xbb2f6a85	-0.0026766371
221	0x3d8bfa38	0.06834835
222	0xbe920ca7	-0.28525278
223	0x3e2f81af	0.17139314
224	0xbe3ccad6	-0.18436751
225	0x3dbcdabd	0.092214085
226	0xbab1b902	-0.0013559165
227	0xbc7a282e	-0.015268369
228	0xbdaff39d	-0.085913874
229	0x3cd0e0f9	0.0254979
230	0x3d86997b	0.06572243
231	0xbd1eab0b	-0.038737338
232	0x3e251582	0.16121486
233	0xbe2de1af	-0.16980623
234	0xbe0501c1	-0.1298895
235	0x3ce2a67c	0.027667277
236	0xbe12ef75	-0.14349158
237	0xbe0c7eb5	-0.1372021
238	0xbcbcf1ef	-0.023064582
239	0x3e38c140	0.18042469
240	0x3d6ec2ff	0.05829143
241	0xbe323e2e	-0.17406532
242	0xbc006fb1	-0.007839129
243	0xbe3dbb13	-0.18528394
244	0xbe37a8ef	-0.17935537
245	0x3ddab7ca	0.10679586
246	0x3e263871	0.16232468
247	0x3e3c1f29	0.18371262
248	0xbd03f1e2	-0.0322131
249	0xbe399cc5	-0.18126209
250	0xbdcbd33a	-0.09952398
251	0xbe2094cb	-0.1568176
252	0xbe80bda4	-0.25144684
253	0xbdcb6c46	-0.09932761
254	0xbe3271dd	-0.17426248
255	0x3b9cdf8a	0.00478739
